vlm_nav/checkpoints/navigator_model.pth (torch, 4952 bytes, 6 tensors)

fc1.weight f4 [16, 14]
00000000: af6f 19bd b2a3 843e 0bab 8b3d b2bd a23b
00000010: d6aa fb3e 1401 06bd 022f a93e 692a a9be
00000020: d419 f43e 70da 4dbe a759 f33e 17b5 3d3f
00000030: 0199 153f 72d8 fbbe 0eec ddbe 1d24 ea3e
00000040: 7a63 00bf 933b 02bf f717 bb3e d281 9f3d
00000050: abd8 543d 959b bb3d cb63 523f 64a9 3abf
00000060: 9368 40be 5d28 163e 6f42 0d3e 3f6d c0bf
00000070: 7b2a 663e b4bf 7fbe 5364 5b3e 360b f83e
00000080: c84c 11b9 efb0 5f3e b113 8c3e ab96 1f3f
00000090: f449 b9be ca51 0a3f f57c a43d ce93 1cbe
000000a0: 533a d63d 95b1 813f 5d34 8cbe 81ef 90be
000000b0: dbb1 8b3d 7df4 59be d8f5 a2bd 1614 3cbe
000000c0: 2f56 7fbe e6e2 f33d 5138 173d 0c7e 0fbd
000000d0: 3a63 69be 9456 7abe cbed 24be c35e 733d
000000e0: ff35 313f a36a 0c3f 0a74 70be 0a3b c73d
000000f0: a8fd bd3e e392 40bd fc1c 2abd a32c d3be
00000100: 50b8 d5be 18cb 173f 092f ef3d 5ce4 b2bd
00000110: 3fae ddbe a661 213f 9739 a93e 32cc 133f
00000120: 3907 b93d 16a7 c33d 98f4 c4be 6392 89bf
00000130: 6eb5 85bf 4293 83bd e246 50bf 40c4 263f
00000140: a72f e8be 0bab 623e f601 27bf 2576 0f3e
00000150: 3619 933f 1f10 46be 5e83 92be 1bf8 b2be
00000160: ea99 4d3e 8633 d13c 3151 233d 5f4c 39bd
00000170: e924 79bf ea80 823f de72 343e cf3c 1ebe
00000180: dabd ce3e 714c 73bf e42d 4bbf 0f09 0e3f
00000190: 1309 013d 5f3f 153d f5ae 403f afdd 813e
000001a0: 99fd 0ebc 747e 9c3d e9bb 3b3f 3f9c b4be
000001b0: 77ca b93e c0eb 3f3d f1d2 0c3f 02ba 8dbe
000001c0: 52b1 e4be a1ee 09bf edd4 783f 96f6 8b3f
000001d0: 2537 87bf 51c2 dcbd a2fb 19bd cc23 463f
000001e0: 8b30 f1be 9988 11bf af98 0fbf 4670 24be
000001f0: 5fdf 25be 3bf2 a03e a556 223f acef 033f
00000200: 1433 d63c d737 ad3d d0b5 8dbe 6016 36bf
00000210: 439b 29bf 6f27 afbe f0d9 39bf b3ea fa3d
00000220: 3504 c23b 7a19 bf3e dc9b 56bf 0f8a 023e
00000230: 33b8 0bbd afcc c3be fc9f 1a3e 62b2 db3d
00000240: 8ab4 8a3e 166f 013f 92a1 663e ca3c 1d3f
00000250: 654b 873d 23d2 e73d 2e44 a1bd d44c c4be
00000260: a502 583e f521 f53e f9bf 3fbe c8cf 43be
00000270: 0747 c93c 7805 963e df33 b33e 387a 283f
00000280: 3139 513f d6d2 c43e 07ff 623f 0d49 e2bd
00000290: 4330 f23e 55e3 b43e b609 493f 32d0 57be
000002a0: 3500 a03e 832a 0b3f 855f 9f3e b0d2 6e3e
000002b0: a580 1b3e 69a5 b1be d950 b0be b74a 39bd
000002c0: 1859 873e 7ea3 a33e 6fa2 b93e e998 123f
000002d0: 8367 bcbe af96 83be 07fb 433f 4ccc 453f
000002e0: e0d2 013f c6ec 853e 3d69 1b3e ac98 32bd
000002f0: 2ad6 58bd 5477 b83d a9fd 1ebf b469 343f
00000300: 541c 86bc 0cfb 16bf 4075 0abf dcb4 733f
00000310: d026 263f 31b4 22bf ca5e c63c 92e0 903b
00000320: abcb 313e 5db6 503f 0123 423f 0b59 c5bf
00000330: e2e9 dcbe f432 623f 2bf1 a13e d23e 323f
00000340: 452c 95bf 7235 c63d baed 15bf 4a74 dabe
00000350: 80aa 3a3e 3070 823d aa97 ba3d a131 9c3e
00000360: 556c a93e 0d35 2e3f 5850 193f 160c 86bf
00000370: c3f1 8fbe d5da 05bd aa66 21bf 4c36 1a3f
-0.037460025 0.2590614 0.06819733 0.004966461 0.49153775 -0.032715872 0.33043677 -0.3304017
0.47675955 -0.20102859 0.47529337 0.74104446 0.5843659 -0.49188572 -0.43344158 0.45730677
-0.5015179 -0.50872153 0.3654172 0.07788433 0.051964443 0.09160534 0.8218352 -0.7291472
-0.18789892 0.14663835 0.13794874 -1.5033339 0.22477143 -0.24975473 0.2142499 0.48446053
-0.00013856881 0.21844839 0.27358773 0.62339276 -0.36189234 0.5403105 0.08031646 -0.15290758
0.10460343 1.0132319 -0.273837 -0.28307727 0.068210326 -0.21284671 -0.07957047 -0.18367037
-0.2493522 0.11908512 0.036918942 -0.035032317 -0.22791758 -0.2444709 -0.16106336 0.059416544
0.69223017 0.54850215 -0.23481765 0.09728058 0.37107587 -0.047015082 -0.041531548 -0.41244993
-0.41742182 0.5929427 0.11678893 -0.08734962 -0.43297002 0.63039625 0.3305175 0.5773345
0.09034581 0.095533535 -0.3846786 -1.0747799 -1.0445993 -0.064245716 -0.8135816 0.65143204
-0.45348856 0.2213556 -0.6523737 0.14009912 1.1492069 -0.19342087 -0.2861585 -0.34954914
0.20078245 0.025537264 0.039872352 -0.04523885 -0.97321945 1.0195591 0.17621943 -0.15452884
0.4037922 -0.95038515 -0.793669 0.5548257 0.031502794 0.03643739 0.75266963 0.25364444
-0.008727455 0.076413065 0.73333603 -0.35275456 0.3628728 0.046855688 0.5500937 -0.27680975
-0.44666535 -0.53879744 0.971999 1.0934627 -1.0563704 -0.107792504 -0.03759349 0.7739837
-0.47107348 -0.56849056 -0.5609235 -0.16058454 -0.1619849 0.31434807 0.6341346 0.51537585
0.026147403 0.08457916 -0.27677774 -0.7112789 -0.66252536 -0.34209773 -0.7259817 0.122517966
0.0059209117 0.37324125 -0.8383157 0.12747978 -0.034111213 -0.382421 0.15100092 0.10727383
0.27090865 0.5056013 0.22522572 0.6142088 0.06606177 0.11319377 -0.07874332 -0.38339865
0.21094759 0.4787747 -0.18725576 -0.19122231 0.024570001 0.29301047 0.35000512 0.6581149
0.8172789 0.38442105 0.8867039 -0.110490896 0.47302446 0.3532969 0.7853044 -0.21075514
0.31250158 0.5436174 0.31127563 0.23322558 0.15185793 -0.3469651 -0.34436682 -0.04523727
0.2643516 0.31960672 0.3625674 0.5726457 -0.36797723 -0.257009 0.7655491 0.7726486
0.50712395 0.26157206 0.15176864 -0.04360263 -0.052938618 0.09007135 -0.62105805 0.7047379
-0.01637093 -0.5897682 -0.5408516 0.95197845 0.64902973 -0.635562 0.02421512 0.004421302
0.1736285 0.81528264 0.7583466 -1.5417799 -0.43147188 0.88359 0.3162931 0.69627106
-1.1654135 0.09678163 -0.58565867 -0.42666847 0.18229103 0.06369054 0.09110959 0.30506614
0.33090463 0.680497 0.5988822 -1.0472438 -0.28114137 -0.032679398 -0.6304728 0.602391

fc1.bias f4 [16]
00000000: 6d05 083f 933a 46be d22a d93e f3f6 2bbd
00000010: 25f7 80bb c521 a13d c065 56be 544d e03d
00000020: 583b 903d edd1 82be 25e6 e93e 9e60 3b3f
00000030: 9325 4c3e ee1c 45be 775b 413d 3a48 bd3e
0.5313328 -0.19358282 0.42415482 -0.041983556 -0.003935712 0.07867769 -0.20937252 0.10952249
0.07042569 -0.25550786 0.456834 0.731943 0.19936208 -0.19249317 0.04720637 0.36969167

fc2.weight f4 [16, 16]
00000000: 2461 143e fe90 a8bf 2acf b83e 9539 02be
00000010: 292a a7be f385 f5be 0ab0 793f 5718 173e
00000020: 96ff e43e 4133 5dbf 6e8d 283e 44e7 ce3e
00000030: 091f f0be ff15 0b3e 99b2 8dbf eb51 533f
00000040: ef12 96be 43f5 8ebf 009f 113f f4f2 bfbb
00000050: b93d 8b3f 0bcc 213f b5ba b73f 0b0c 21bf
00000060: 0a48 de3f c91b b73e 00ac a03e c0a4 bb3d
00000070: 84d4 383e 6f74 b33f 6a22 6c3f 2033 643f
00000080: 2ed1 133f 702c 813f 17c5 6f3e f33e 083e
00000090: 80eb 45be 5d77 26bf f0e4 d8be 978b 3d3f
000000a0: d120 3ebe 7522 28bf 6e0b 3e3f a6e3 5f3f
000000b0: d9e3 903e 325f b7be 71b7 8bbf 65e4 563f
000000c0: 4afc c63d 108d 7bbe e167 5e3d 386b f0bd
000000d0: a453 1b3c 53a3 263e 7972 ed3d 753b 633e
000000e0: b810 253e c0cb c7bd acc3 5cbe f231 e2bc
000000f0: 738f 5ebe cd78 8cbd ced7 92bd 5668 cdbd
00000100: 6034 603f edf9 d03f a28b bebe 459f b7bd
00000110: 2a18 adbf 4e37 b63c 9697 c0bf 3e82 483f
00000120: c98a e9bf d2c7 2fbe 048f 55bd 2908 263f
00000130: fd50 e83e 2fd2 a8bf 044d b1be 358e 9fbe
00000140: 465e 9ebe 912b 99bf b2b7 123f 0403 11be
00000150: b861 9e3e 3174 d13c c765 8b3f 2b46 2fbe
00000160: 5a75 6f3f 2ea1 4cbe 1325 fb3e 85e0 6a3d
00000170: ba7c e2be 776c 3b3f 6757 26bf a2b3 523f
00000180: 9f0f 1b3f d9bf 933f aeb9 a53e 4c02 073e
00000190: a51b 07bf a0b5 f1be a88c f1be fb12 553f
000001a0: 2a4d 3abe e259 12bf f82e b53e 60f0 2e3f
000001b0: 332e 293e 0d7e 9cbe 880f 87bf b527 7e3f
000001c0: a33a 503c 9eb8 88bf c8f2 cf3e c139 0fbc
000001d0: 198c a9be 7f83 3bbf 336b b73f 1900 c23e
000001e0: e57b ac3e 7f55 2dbf b6ac f43e b59c 053f
000001f0: 092b 19be 781e a0be 2827 92bf b7c2 6a3f
00000200: a4bb f5bd 9ee5 70be 2033 58bd 828c 63be
00000210: c446 cebd 860d 553e 007c 44bc 20e8 4abe
00000220: c089 4f3c ee42 73be c49b 35be a25e 02be
00000230: 8a03 19be cce0 353e 28de 083e f04e 99bc
00000240: 0b6f dcbe 9d56 b23e 4953 f8bd 7015 acbd
00000250: 40d7 563f b1cf 923f 294f 37bf a7eb 85bf
00000260: 0f72 153e 98c7 9f3f 37ca b8be 156b bfbe
00000270: 05d1 283f da14 413f cdf5 0140 e3f1 3ebf
00000280: 4589 053b bc66 67bd 58c8 e33e 78c7 35be
00000290: 6ac2 733f 6115 943f 48b0 c2be 2650 ddbe
000002a0: 854d ce3e a247 573f e378 37be 3a87 0bbf
000002b0: cb29 293f 46e1 6e3f 5313 c73f 82d8 3dbf
000002c0: b377 7fbe af59 98bf d301 083f 3678 10be
000002d0: 0c53 9e3f 2c82 c33e 31a0 9b3f 912e 0dbf
000002e0: 740b a93f 4cd1 373e c5e4 e93e 0de9 06bd
000002f0: 7a48 ccbd f7b4 963f 213a 233f 6804 6b3f
00000300: d065 31be 59a1 9cbf 51ca f73e ab7c 823e
00000310: 5e55 d43e 50ef 53be 3f81 b43f cf0c f7be
00000320: 4ee1 703f 09b5 13bf eb57 e33e d56c 053e
00000330: a78e 44be 78d6 e13e d4f7 20bf d10b 543f
00000340: 026e 0f3f 57af 883e d02f a23e a9da 513d
00000350: 2e0a dbbe a4f0 13bf f47d 413f db05 7f3f
00000360: dc7b eebd 91b2 4abf 23ac 033f be03 6c3f
00000370: 301c b9be f227 babe 2bdd aebf cd31 933f
00000380: e264 1fbe 3ecc 273e abfc 28be 14a9 cfbd
00000390: 80fc c1bb eaa0 183e 8078 f9bd 1528 1d3e
000003a0: bf1c a8bc a0b8 043e e13a 51be 7023 90bd
000003b0: 0f73 08be 9ea3 db3d 1cc1 5cbe f8ca 683e
000003c0: 9a6d 393f 4d87 c53f 8ec3 85be 470b a9ba
000003d0: b535 92be b443 cd3e 68a8 98bf a5cf 993e
000003e0: a553 81bf 72d6 453f ec98 97be edec e63e
000003f0: c1f6 003f 3c9f a9be bad7 9d3f de70 51bf
0.14490181 -1.3169248 0.36095554 -0.12717278 -0.32649353 -0.47953758 0.9753424 0.14755379
0.44726247 -0.8640633 0.16460201 0.40410817 -0.46898678 0.1358261 -1.1070129 0.8254687
-0.2931132 -1.1168598 0.5688324 -0.0058578197 1.0878211 0.6320197 1.4353853 -0.62909
1.7365735 0.35763386 0.31381226 0.09162283 0.18049818 1.4019908 0.9224001 0.8914051
0.5774106 1.0091686 0.23415028 0.13305263 -0.19328117 -0.65025884 -0.42362165 0.7404112
-0.18567206 -0.6567758 0.7423619 0.8745674 0.28298834 -0.35814816 -1.0915357 0.8394225
0.09716089 -0.2456553 0.054298285 -0.117392 0.009480391 0.16273241 0.115940996 0.2219065
0.16119659 -0.09755659 -0.21559018 -0.027611706 -0.21734409 -0.068589784 -0.07170068 -0.10029666
0.8757992 1.6326271 -0.37215906 -0.08965925 -1.3522999 0.022243168 -1.504626 0.78323734
-1.8245479 -0.17166069 -0.052138343 0.648562 0.4537429 -1.3189143 -0.3462907 -0.31163183
-0.309313 -1.196642 0.57311547 -0.14161307 0.30933928 0.0255681 1.0890435 -0.1711661
0.9353844 -0.1998336 0.49051723 0.057343025 -0.44235784 0.7321238 -0.64977115 0.8230535
0.6057071 1.1542922 0.32368225 0.1318447 -0.5277656 -0.4720888 -0.47177625 0.83232087
-0.18193498 -0.571684 0.35387397 0.68335533 0.1652153 -0.3056492 -1.0551615 0.9927934
0.012709293 -1.0681341 0.40614915 -0.008741797 -0.331147 -0.7324752 1.432959 0.378907
0.33688274 -0.6770858 0.47788018 0.5219224 -0.14957823 -0.31273246 -1.14182 0.9170336
-0.1199868 -0.23525092 -0.05278313 -0.22221568 -0.10072091 0.2080594 -0.0119924545 -0.19815111
0.0126671195 -0.23756 -0.17735201 -0.12731412 -0.14942756 0.17761534 0.13365996 -0.018714398
-0.4305347 0.34831706 -0.121252604 -0.084025264 0.83922195 1.1469632 -0.71605164 -1.046254
0.14594291 1.2482786 -0.36091778 -0.37386385 0.6594394 0.7542244 2.0306275 -0.7458784
0.0020376008 -0.05649446 0.44488788 -0.17751873 0.9521853 1.1569024 -0.38025117 -0.4322521
0.40293518 0.8409368 -0.17917208 -0.54503214 0.66079396 0.9331249 1.5552772 -0.7415849
-0.24948005 -1.1902369 0.53127784 -0.14108357 1.2369094 0.3818525 1.2158262 -0.5514918
1.320662 0.17950934 0.4568235 -0.0329371 -0.09974761 1.1773976 0.6376057 0.918036
-0.17323995 -1.2236739 0.48396543 0.2548574 0.4147138 -0.20696759 1.4101943 -0.4825196
0.9409379 -0.5769811 0.44403014 0.13029797 -0.19195043 0.4410894 -0.62878156 0.8283053
0.56027234 0.26696274 0.31677103 0.05123392 -0.42781204 -0.57789063 0.75582814 0.9961831
-0.11644718 -0.7917872 0.51434535 0.9219321 -0.36154318 -0.363586 -1.3661245 1.1499573
-0.15565827 0.16386506 -0.16502635 -0.10139671 -0.005919993 0.14905134 -0.12181187 0.15347321
-0.02052152 0.12961054 -0.20432617 -0.07038009 -0.13325141 0.10724567 -0.2155804 0.22733676
0.72432864 1.5431916 -0.2612576 -0.0012897038 -0.285566 0.40090716 -1.1926394 0.30041233
-1.0103651 0.7728034 -0.29608858 0.45102635 0.50376517 -0.331293 1.233146 -0.81812847

fc2.bias f4 [16]
00000000: a38a fe3e 3186 c93e 681e f73e 85e3 cbbd
00000010: c0df 9c3d de7c 603e 83ed c13e bc39 043f
00000020: 1691 47be 7286 66be efd0 923e 4652 d63e
00000030: d1f8 bb3e 08ab 113f 5dc9 dcbd a5a7 223e
0.49715146 0.39360192 0.48265386 -0.09955505 0.076598644 0.21922633 0.3787652 0.51650596
-0.1948894 -0.22512224 0.2867503 0.41859645 0.3671327 0.569016 -0.107805945 0.15884264

fc3.weight f4 [3, 16]
00000000: 6971 6e3f 13fd 6b3e aefd 87be 081f 08be
00000010: 0f2e c4bf 0eae 323f 20ab 383d 1768 123f
00000020: 00f2 5ebc 8b0a e1bf 884b 28bf a830 a23e
00000030: 8d29 0c3f 3c46 d53e 9be0 ec3c d9c4 aabf
00000040: 6446 13bf c25d aebf 6122 e23e 81fc e3bd
00000050: 7eb0 dd3f e3a6 81bf 2751 573f 4941 efbe
00000060: 489b 4b3d a823 dabe e11d 3dbf 3cd1 bbbf
00000070: c70c b3bf 37f4 cf3e 2dd1 403e a016 933f
00000080: 236f 5dbf 7fe5 ce3e fc7e e1bf a5b2 bbbc
00000090: c63e 92be c765 463e 4068 c4bf 519f 9cbf
000000a0: 1803 9dbd c328 e73f 2d4e 583f 8e45 b03e
000000b0: 23e9 37be 386a c0bf 0f36 093e 0fbf 103f
0.931418 0.23045759 -0.2656073 -0.13293087 -1.5326556 0.69796836 0.045085073 0.5719008
-0.013607502 -1.7581342 -0.6574025 0.31677747 0.547509 0.41655147 0.028915694 -1.3341323
-0.5752928 -1.3622363 0.44166854 -0.11132146 1.7319486 -1.0129055 0.84108204 -0.46729496
0.049708635 -0.4260533 -0.73873717 -1.4673228 -1.3988274 0.4061601 0.18829794 1.149128
-0.86497706 0.40409467 -1.7616878 -0.022912333 -0.28563517 0.19374762 -1.5344315 -1.223612
-0.07666606 1.8059314 0.84494287 0.34428066 -0.17960028 -1.5032415 0.13399528 0.5654153

fc3.bias f4 [3]
00000000: 2b52 703e af93 1abd 7ca7 2bbe
0.23468845 -0.0377385 -0.16763109
